datacifar/model.pt (torch, 251414 bytes, 10 tensors)

conv1.weight f4 [6, 3, 5, 5]
0	0xbeb72846	-0.35772914
1	0x3b90a911	0.0044146855
2	0xbe2d8176	-0.16943917
3	0xbe2331c7	-0.15936957
4	0xbe2757ee	-0.16342136
5	0x3d21f907	0.03954413
6	0xbd0ab32c	-0.033862278
7	0xbea55f6d	-0.32299367
8	0x3cf23224	0.029564925
9	0xbe72292f	-0.23648523
10	0x3dd9a95d	0.106280066
11	0xbeb86576	-0.3601491
12	0xbde0d226	-0.10977583
13	0x3ea1226a	0.31471568
14	0x3d60ede0	0.054914355
15	0x3e28ad83	0.1647244
16	0xbe62d4a8	-0.22151434
17	0x3e1b855b	0.1518759
18	0x3d860716	0.0654432
19	0xbddce984	-0.10786727
20	0xbde93fb6	-0.11389105
21	0x3e91b3e6	0.28457564
22	0xbd12c22a	-0.0358297
23	0xbea30835	-0.318422
24	0xbc578c76	-0.013156047
25	0xbcf08c2e	-0.029363718
26	0x3da2a136	0.07940905
27	0x3e65d547	0.2244464
28	0x3cb70d7f	0.022345303
29	0xbda53a3c	-0.08067748
30	0x3e692218	0.22766912
31	0x3dfa90ef	0.12234675
32	0xbd6f314e	-0.05839663
33	0x3e1bd94f	0.15219615
34	0x3d57ff6b	0.05273382
35	0x3ed475f5	0.41496244
36	0xbddb97b0	-0.107222915
37	0x3e1af779	0.15133466
38	0x3eb30c8a	0.34970504
39	0x3e31ea70	0.17374587
40	0x3e804654	0.25053656
41	0xbd9b52cd	-0.07584152
42	0x3da7da74	0.081959635
43	0x3e937c95	0.28805986
44	0x3e073273	0.13202839
45	0x3e1de3b6	0.15418896
46	0x3ebcc91b	0.3687218
47	0x3d994c30	0.07485235
48	0xbe50aa84	-0.20377547
49	0x3de3133b	0.11087652
50	0xbe320c56	-0.17387518
51	0xbabd1512	-0.0014425835
52	0xbd8d64cf	-0.06903993
53	0x3d12cc4f	0.035839375
54	0xbdcbe8bd	-0.09956501
55	0x3dab77e0	0.08372474
56	0xbd2856bb	-0.041098338
57	0xbe27a6f9	-0.16372289
58	0x3da8afcd	0.08236656
59	0xbdea83f4	-0.11450949
60	0x3e80ec54	0.25180304
61	0xbe67dbb9	-0.22642411
62	0xbba54dda	-0.005044681
63	0x3e80da1e	0.2516641
64	0xbc43d480	-0.011952519
65	0x3d5a13e5	0.05324163
66	0xbe81e1cc	-0.25367582
67	0x3ddb1046	0.10696463
68	0x3e150d22	0.14555791
69	0xbde3a534	-0.11115494
70	0xbe3f52fc	-0.18684
71	0x3e8b4dd5	0.2720782
72	0xbe5f9bee	-0.21836826
73	0xbebc13b0	-0.3673377
74	0xbe26bd72	-0.16283205
75	0xbe641cf1	-0.22276665
76	0xbd9a814d	-0.075441934
77	0xbe1a5235	-0.15070422
78	0xbd8016c5	-0.06254343
79	0xbe2e2fa7	-0.17010365
80	0xbe6fe20d	-0.23426075
81	0xbe5df83c	-0.21676725
82	0xbe6a3a5a	-0.22873822
83	0xbe1c6c89	-0.15275778
84	0xbe18b061	-0.14911033
85	0xbe97abeb	-0.2962335
86	0xbdd4dad5	-0.103933014
87	0xbe59fc46	-0.21287641
88	0xbe4bff99	-0.19921722
89	0xbdeabc71	-0.114617236
90	0xbcc3fa51	-0.023923071
91	0xbd2ba158	-0.041901916
92	0xbd05da8a	-0.03267912
93	0xbde42bf9	-0.111411996
94	0xbdd195f4	-0.102336794
95	0xbe4201c6	-0.18945989
96	0xbc07b61c	-0.008283164
97	0x3dc7d947	0.09758239
98	0x3d5f8d2f	0.054578003
99	0x3d8683bb	0.06568094
100	0x3d6a9b1e	0.057276838
101	0x3bf352fd	0.0074256645
102	0x3baab4bd	0.005209534
103	0xbd3fc74d	-0.046820927
104	0x3da9caf9	0.08290667
105	0x3db541b2	0.08850421
106	0x3d3b5c0b	0.045742076
107	0x3cb101a1	0.021607222
108	0x3c6d79d3	0.014494377
109	0xbe18ce54	-0.14922458
110	0x3df684c0	0.12037039
111	0xbd60b70b	-0.054862063
112	0x3daa188e	0.08305465
113	0x3cc9590a	0.02457859
114	0xbd832165	-0.06402854
115	0x3c5a7d06	0.013335472
116	0x3e08ebb3	0.13371162
117	0xbd20bfa2	-0.039245255
118	0xbc6b3a3d	-0.014357147
119	0xbde79aa6	-0.11308794
120	0xbe1d6f0d	-0.15374394
121	0xbc83da1e	-0.016095217
122	0xbd80815a	-0.06274672
123	0xbd04ee00	-0.032453537
124	0xbdb77c7c	-0.089592904
125	0x3eb2d6e0	0.34929562
126	0x3e9272b6	0.28603142
127	0x3e3c9658	0.18416727
128	0x3e19b57a	0.15010634
129	0xbcdf06b2	-0.027224872
130	0x3e821647	0.2540762
131	0x3eba2280	0.36354446
132	0x3e97a994	0.29621565
133	0x3d187ac5	0.037226457
134	0x3dc6950c	0.09696397
135	0x3e50acb4	0.20378381
136	0x3ebdf1b0	0.37098455
137	0x3e6bf540	0.23042774
138	0x3e6f3a8c	0.23362178
139	0x3cd52930	0.026020616
140	0x3e6df860	0.23239279
141	0x3e9959d3	0.29951343
142	0x3e7d09f7	0.24710833
143	0x3d76b08e	0.06022697
144	0x3cd71e44	0.026259549
145	0x3dca5785	0.09879974
146	0x3dee9d2c	0.11651072
147	0x3cf45ddd	0.029829914
148	0xbd279bea	-0.040920176
149	0xbe592680	-0.21206093
150	0xbd72d2be	-0.05928301
151	0xbd38c584	-0.04511024
152	0x3db95486	0.09049325
153	0x3dbea6ff	0.09309196
154	0x3d829d24	0.063776284
155	0xbe2897cd	-0.16464157
156	0xbc9cdc41	-0.019147994
157	0x3e23e10e	0.1600382
158	0x3e3f30cc	0.18670958
159	0x3dc1d100	0.09463692
160	0xbdd5fcdd	-0.104486205
161	0xbdcb5bb1	-0.09929598
162	0x3dd883f0	0.1057204
163	0x3e61f41f	0.22065781
164	0x3e3a0167	0.18164597
165	0xbe01056f	-0.12599729
166	0x3d694541	0.05695081
167	0x3e01c5ce	0.12673113
168	0x3e1b9990	0.15195298
169	0x3e09025f	0.13379811
170	0xbdd753eb	-0.10514053
171	0x3bdea948	0.0067950822
172	0x3d7afc8b	0.061276
173	0x3e668852	0.2251294
174	0x3d64bf11	0.055846278
175	0xbe22741e	-0.15864608
176	0xbd509fa9	-0.050933514
177	0x3d2410f8	0.040055245
178	0x3d8a5594	0.06754604
179	0x3cfd8755	0.03094832
180	0xbdf925cf	-0.121654145
181	0xbddcbde2	-0.10778405
182	0xbe007750	-0.12545514
183	0x3db75a14	0.08952728
184	0xbcd1a13d	-0.02558958
185	0xbe4e790c	-0.20163363
186	0x3d0e5ccd	0.03475647
187	0x3d4e535d	0.05037247
188	0x3e39cac0	0.18143749
189	0xbc9b9a11	-0.018994363
190	0xbe11702c	-0.14202946
191	0xbd867429	-0.065651245
192	0x3de1015d	0.10986588
193	0x3cd1e19f	0.02562028
194	0xbc84cf26	-0.016212057
195	0xbe26a01c	-0.16272014
196	0xbb806de1	-0.0039193486
197	0x3dbcb50b	0.09214219
198	0x3db97c3b	0.09056898
199	0xbcdee7f0	-0.027210206
200	0xbd822a87	-0.06355768
201	0x3d4b0f87	0.049575355
202	0x3de5c8ef	0.11219966
203	0x3e864d3b	0.26230797
204	0x3e5f3a7b	0.21799652
205	0xbe4e1980	-0.20126915
206	0xbe0b594b	-0.13608281
207	0x3de26c33	0.110557936
208	0x3e64e854	0.22354251
209	0x3e8b8a41	0.27253917
210	0xbe83d865	-0.25751033
211	0xbe1b96d3	-0.15194254
212	0x3d33b18b	0.04387049
213	0x3e5d6974	0.21622258
214	0x3e461101	0.19342424
215	0xbdb6ada1	-0.08919836
216	0xbe0cafee	-0.13738987
217	0xbc800258	-0.015626118
218	0x3e22ecd1	0.15910651
219	0x3de7538b	0.112952314
220	0xbda669ff	-0.08125686
221	0x3cd37ddc	0.02581685
222	0xbcce094d	-0.02515092
223	0x3d876fb9	0.06613106
224	0x3df040d0	0.11731112
225	0x3ea95c5b	0.33078274
226	0xbd56af8a	-0.0524135
227	0x3d67509f	0.05647337
228	0xbd833ea3	-0.064084314
229	0x3e06a1e8	0.131477
230	0x3e9a659d	0.3015565
231	0x3ec7d4db	0.39029583
232	0x3ed64bea	0.41854793
233	0x3edead92	0.434918
234	0x3ec260f4	0.37964594
235	0x3e697412	0.22798184
236	0x3eb498ab	0.35272726
237	0x3f0b3d4c	0.54390407
238	0x3f04bd8f	0.51851743
239	0x3e99533d	0.29946318
240	0xbe851d73	-0.2599903
241	0xbeb9235d	-0.36159793
242	0xbe742c9c	-0.23845142
243	0xbe2d45ab	-0.16921107
244	0xbe420166	-0.18945846
245	0xbee37d3b	-0.4443148
246	0xbf0199ac	-0.5062511
247	0xbf2d5ace	-0.6771668
248	0xbeef29fb	-0.46711716
249	0xbeb4fe78	-0.35350394
250	0x3da45513	0.08024039
251	0xbe6b3623	-0.2296987
252	0xbeba5369	-0.36391762
253	0xbe8914c7	-0.26773664
254	0xbe8c6ad7	-0.27425262
255	0xbbad9d8a	-0.005298321

conv1.bias f4 [6]
0	0x3ea8ba06	0.32954425
1	0x3eb8f62d	0.36125317
2	0xbb4b7dfd	-0.0031050437
3	0xbf24537c	-0.6418989
4	0xbebd4a00	-0.3697052
5	0xbe86c9df	-0.2632589

conv2.weight f4 [16, 6, 5, 5]
0	0x3c751d19	0.014960551
1	0xbe0c8a0a	-0.13724533
2	0xbc450bd1	-0.012026743
3	0xbe0e99cd	-0.13925858
4	0xbc96683b	-0.018360248
5	0x3caff095	0.021477023
6	0xbcc34197	-0.023834987
7	0xbdf36887	-0.118851714
8	0xbdf2b0b9	-0.118501134
9	0xbdb9d128	-0.090730965
10	0x3d0b32b5	0.033983905
11	0xbdcd161f	-0.10013985
12	0x3c3c8473	0.011506188
13	0xbc72a4c5	-0.014809792
14	0x3c6913be	0.014225898
15	0x3d3f9d09	0.04678062
16	0x3d32ca71	0.043650094
17	0xbca02dc4	-0.019553073
18	0xbdedc961	-0.116106756
19	0xbd38f211	-0.045152728
20	0x3cf6c018	0.030120894
21	0x3cb096b6	0.02155624
22	0xbdea0a3d	-0.11427734
23	0x3b95b5bf	0.004568785
24	0x3ca5588c	0.020183824
25	0x3e7f8694	0.24953681
26	0x3e1ae1ec	0.15125245
27	0x3e458af0	0.19291282
28	0x3e1085e4	0.14113575
29	0x3db545ec	0.08851227
30	0x3d906eb9	0.07052369
31	0xbdd2a263	-0.10284879
32	0xbd79e9a3	-0.06101383
33	0x3c7ab5f4	0.01530217
34	0xbda5c404	-0.08094028
35	0xbdad6265	-0.08466033
36	0xbd73ce2c	-0.059522793
37	0xbddf2ec2	-0.1089759
38	0xbd06e540	-0.032933474
39	0xbdc63c72	-0.09679498
40	0x3c0eb5d2	0.0087103415
41	0xbd84f5cb	-0.06492194
42	0xbdb47dce	-0.08813058
43	0xbd3b1eb8	-0.045683593
44	0xbdfabfa8	-0.12243587
45	0xbbab6962	-0.0052310685
46	0xbca3a9d9	-0.01997845
47	0x3d3a2d90	0.045453608
48	0x3c8d3f38	0.01724206
49	0xbd3cdead	-0.046110798
50	0x3d831018	0.06399554
51	0x3e38fbd0	0.18064809
52	0x3e09e399	0.13465728
53	0x3ea55ca0	0.3229723
54	0x3ea020d9	0.3127506
55	0xbbaf9732	-0.0053586
56	0x3da358f6	0.07975952
57	0x3df6e926	0.12056188
58	0x3e65d8c4	0.22445971
59	0x3e15426c	0.14576119
60	0xbdac55dc	-0.08414814
61	0x3d0aa55d	0.03384911
62	0x3c1d838b	0.009613882
63	0x3dd4719b	0.10373231
64	0x3dbd0094	0.09228626
65	0xbd9863eb	-0.07440933
66	0xbdcd48d7	-0.10023659
67	0x3de9295c	0.11384842
68	0xbbb483cf	-0.005508877
69	0x3de32147	0.110903315
70	0xbdba127a	-0.090855554
71	0xbd614d8b	-0.05500559
72	0x3e181561	0.14851905
73	0xbc3fa785	-0.011697655
74	0x3c243816	0.010023138
75	0xbd530ede	-0.05152785
76	0xbdb5495a	-0.08851881
77	0xbd8cb07f	-0.068696015
78	0xbd650656	-0.055914246
79	0x3beb5352	0.0071815634
80	0x3d5429d8	0.051797718
81	0xbdb1cb88	-0.08681399
82	0xbdf1f149	-0.118135996
83	0x3bd96511	0.0066343625
84	0xbd396654	-0.045263603
85	0xbd90aa30	-0.07063711
86	0xbdfe8c31	-0.12429083
87	0xbe3f16ae	-0.18660995
88	0xbe0bb474	-0.13643056
89	0xbbacfc06	-0.005279067
90	0xbe4bb921	-0.1989484
91	0xbe5c7d14	-0.21532089
92	0xbe21b296	-0.15790781
93	0xbe6d5424	-0.23176628
94	0xbe27baa6	-0.16379794
95	0xbe11f7c6	-0.14254674
96	0xbe30d129	-0.17267288
97	0xbe0fe8b4	-0.14053613
98	0xbe098aab	-0.13431804
99	0xbe126e33	-0.1429985
100	0x3ddf05e6	0.10889797
101	0x3e030bb4	0.12797433
102	0x3d279b5e	0.040919654
103	0x3dc00d86	0.093775794
104	0x3ddf7370	0.1091069
105	0x3b84648f	0.004040308
106	0xbd8e1eea	-0.0693949
107	0xbe101609	-0.14070906
108	0x3c82e7ae	0.015979614
109	0x3dae1f7c	0.08502099
110	0x3c8056c3	0.015666371
111	0xbe0263ae	-0.12733337
112	0xbad3a5af	-0.00161474
113	0xbd88eb74	-0.06685534
114	0xbcd824c9	-0.026384728
115	0xbc304b3f	-0.010760128
116	0xbdd55b91	-0.104178555
117	0xbdcb2680	-0.09919453
118	0xbdc3688e	-0.095414266
119	0x3c27cfd1	0.010242418
120	0xbdb22619	-0.08698673
121	0xbd57439c	-0.05255471
122	0xbdb3a350	-0.08771384
123	0xbde53217	-0.111911945
124	0xbdaa5278	-0.08316511
125	0xbcc75676	-0.02433322
126	0x3d790732	0.060797878
127	0x3d0b2bbd	0.03397726
128	0xbdc1f139	-0.09469838
129	0x3d74528d	0.05964904
130	0xbc936631	-0.017993065
131	0xbaed8299	-0.0018120586
132	0x3b225c72	0.002477434
133	0xbde13a75	-0.10997478
134	0x3cd3a566	0.025835704
135	0xbde2ac9d	-0.110680796
136	0x3e3cfee6	0.18456611
137	0xbc4ea627	-0.012612856
138	0x3d36b852	0.044609375
139	0x3cd56f16	0.026053946
140	0xbdd4b632	-0.103863135
141	0x3e407fe0	0.1879878
142	0x3cd7c41b	0.026338628
143	0x3deb297a	0.114825204
144	0x3dec40cd	0.11535797
145	0xbd62c5a9	-0.055364285
146	0x3e1ca10a	0.15295807
147	0xbd8034b0	-0.06260049
148	0x3d3431c9	0.04399279
149	0x3ca19646	0.019724976
150	0xbdc6ac02	-0.09700777
151	0x3d9c6edd	0.07638333
152	0x3cd79e3d	0.026320571
153	0x3df7dee8	0.12103063
154	0x3d9ac14e	0.07556401
155	0xbe31c1cd	-0.17359085
156	0x3c8476dc	0.016169958
157	0x3d6b1841	0.057396177
158	0x3d967632	0.07346763
159	0x3e457f7c	0.19286913
160	0xbd9e94e8	-0.07743245
161	0xbe19db9a	-0.15025178
162	0x3dbde87b	0.09272858
163	0x3d225c43	0.03963877
164	0x3dede238	0.116154134
165	0x3d161390	0.03663975
166	0xbdb40669	-0.08790285
167	0xbba383ae	-0.0049900627
168	0xbd22cbdd	-0.0397452
169	0x3d3ca6ed	0.04605763
170	0xbd503aaa	-0.050837196
171	0xbbe99497	-0.007128309
172	0xbccfd375	-0.025369385
173	0xbda8d07e	-0.08242892
174	0xbd7d3386	-0.061816715
175	0xbd0a6833	-0.03379078
176	0xbdd5b515	-0.10434929
177	0x3c5e0a2c	0.01355223
178	0xbd37fddf	-0.044919845
179	0xbceb7797	-0.028743548
180	0x3b15e867	0.0022874118
181	0x3d25863b	0.040411215
182	0x3d7bd87e	0.06148576
183	0x3d425ca2	0.047451623
184	0xbbe5ccfa	-0.0070129605
185	0xbd900fe9	-0.070342846
186	0x3d372d45	0.044720907
187	0x3ddbefe2	0.107391134
188	0x3cc73e89	0.024321811
189	0xbd85141f	-0.064979784
190	0xbe162b2f	-0.1466491
191	0xbc9e4879	-0.019321667
192	0xbd85bc18	-0.06530017
193	0xbd13f8f1	-0.03612608
194	0xbd4f21c0	-0.050569296
195	0xbda0e1e9	-0.07855589
196	0xbd46cdab	-0.048535984
197	0xbd0b98ea	-0.034081377
198	0xbabaed20	-0.0014261343
199	0xbc6dd848	-0.0145168975
200	0xbdca7986	-0.0988646
201	0xbdc09cf1	-0.09404934
202	0xbda85b11	-0.082204945
203	0xbb87649b	-0.004131866
204	0xbd96ae22	-0.07357432
205	0xbb8252dc	-0.0039771628
206	0xbdf31ce2	-0.11870743
207	0xbda2d42b	-0.07950624
208	0x3db10f51	0.086454995
209	0xbd856610	-0.065136075
210	0xbd39900a	-0.045303382
211	0xbd8514cb	-0.064981066
212	0xbe05794e	-0.13034555
213	0x3d573d7e	0.052548878
214	0x3d9d1cd0	0.07671511
215	0xbcadff25	-0.021239826
216	0xbd8351f1	-0.064121135
217	0xbddec1f8	-0.1087684
218	0x3d74deda	0.05978284
219	0x3e136f88	0.14398015
220	0xbc4d1a4c	-0.012518477
221	0x3cf3bd39	0.029753314
222	0xbd158844	-0.036506906
223	0xbdd5cd32	-0.104395285
224	0x3d803fe3	0.062621854
225	0x3d04da35	0.03243466
226	0x3d8f8823	0.07008388
227	0x3dc47a40	0.0959363
228	0xbd4e68a0	-0.050392747
229	0xbdbdfb55	-0.092764534
230	0xbd62fb87	-0.055415656
231	0x3e141e1e	0.14464614
232	0x3e19e684	0.15029341
233	0xbb9e85ec	-0.004837742
234	0xbd0d9ed9	-0.034575317
235	0x3d36d4fd	0.044636715
236	0x3dac0de6	0.084010884
237	0x3d16e452	0.036838837
238	0x3e15f612	0.1464465
239	0x3d7032b2	0.058642097
240	0xbc986666	-0.018603515
241	0x3e332d12	0.17497662
242	0x3c8601bd	0.01635825
243	0xbd69055a	-0.05688987
244	0x3e3cd286	0.18439683
245	0xbdf4c6d7	-0.11951988
246	0x3e03e186	0.12878999
247	0x3e84b23f	0.2591724
248	0x3dd163ec	0.10224137
249	0x3e42fc19	0.1904148
250	0xbe177589	-0.1479093
251	0x3c19b4b7	0.009381465
252	0x3dcb2975	0.09920017
253	0xbc43ad4e	-0.0119431745
254	0x3d612d4b	0.054974835
255	0xbe121d7a	-0.14269057

conv2.bias f4 [16]
0	0xbe207030	-0.15667796
1	0x3cc8a1a1	0.024491133
2	0x3f63c144	0.88966775
3	0xbed937e8	-0.42425466
4	0xbee21216	-0.44154423
5	0x3e097526	0.13423595
6	0x3f4152c8	0.7551694
7	0x3e534b1c	0.2063412
8	0xbe6251b0	-0.22101474
9	0x3d9c7f9f	0.07641529
10	0xbe0a8357	-0.13526665
11	0xbdd44244	-0.10364202
12	0x3e113911	0.14181925
13	0xbdd7e638	-0.105419576
14	0xbd09b8df	-0.033623572
15	0x3f01c556	0.50691736

fc1.weight f4 [120, 400]
0	0xbd29b141	-0.041428808
1	0xbcbd5668	-0.02311249
2	0xbc4a2b68	-0.01233945
3	0xbd0aa5fb	-0.033849698
4	0xbca59432	-0.020212267
5	0xbbe0b22a	-0.0068571763
6	0xbc2228e3	-0.0098974435
7	0xbd2fb7f5	-0.042900044
8	0x3d3cb929	0.04607502
9	0x3d32bcdb	0.043637138
10	0xbd5c9e7e	-0.053862087
11	0x3cc2330e	0.023705985
12	0xbd12b648	-0.03581837
13	0xbc4dd0d2	-0.012561994
14	0x3cb44f99	0.022010611
15	0xbc09bec1	-0.008407296
16	0x3c908f1a	0.017646361
17	0xbd4a81f2	-0.04944033
18	0xbb68c56d	-0.0035518066
19	0x3d58c65b	0.05292354
20	0xbd84ba02	-0.06480791
21	0x3cfe3c18	0.031034514
22	0xbd2efd76	-0.042722188
23	0xbc2cbabd	-0.010542569
24	0xbbe1882f	-0.0068826894
25	0xbd090aab	-0.03345744
26	0x3b009b31	0.0019623751
27	0x3d1ecc47	0.038769033
28	0xbcd9f1d3	-0.026604569
29	0x3d4ca07f	0.04995775
30	0xbccf4bcb	-0.025304696
31	0x3c56b480	0.013104558
32	0x3bd619d0	0.006533839
33	0x3d2281e6	0.039674662
34	0x3d4e92f0	0.0504331
35	0xbc9d5f9f	-0.019210635
36	0xb9b35963	-0.0003420814
37	0x3bca3c94	0.0061717723
38	0xbd2ad4cf	-0.041706856
39	0x3c80e502	0.0157342
40	0xbc72acf4	-0.014811743
41	0x3c2201a8	0.00988809
42	0x3d148db5	0.036267955
43	0x3bde5b68	0.006785799
44	0xbcfb680e	-0.030689266
45	0x3d008fc1	0.031387094
46	0xbcf257bf	-0.029582856
47	0x3c926b99	0.017873572
48	0x3c27327d	0.010204908
49	0x3ceef28b	0.029168388
50	0x3d0da4da	0.034581043
51	0x3cbb6fbc	0.022880428
52	0x3cf69530	0.030100435
53	0xbcf03863	-0.029323762
54	0x3cb9036e	0.022584643
55	0xbcbc1f28	-0.022964075
56	0xbd0b94f9	-0.03407762
57	0xbc2c9644	-0.010533873
58	0x3c051d2b	0.00812463
59	0xbc47a3b7	-0.012185029
60	0xb929f70a	-0.00016209125
61	0xbac1371f	-0.0014741159
62	0xbd7542a8	-0.05987802
63	0xbc440b1c	-0.011965539
64	0x3d438f5c	0.04774414
65	0xbcd3a71b	-0.025836518
66	0xbd719bc2	-0.058986433
67	0xbd98b82b	-0.07457002
68	0x3ccf0a6c	0.025273524
69	0xbc5ec159	-0.013595902
70	0xbd677bee	-0.056514673
71	0xbcbded7e	-0.023184534
72	0xbd58b70f	-0.052908953
73	0x3bc111d6	0.005892019
74	0x3d40628c	0.04696898
75	0xbd26dafc	-0.040736184
76	0xbd196860	-0.037453055
77	0xbc23fa86	-0.01000846
78	0x3bfb4606	0.0076682596
79	0x3c6727aa	0.014108578
80	0xbd200719	-0.03906927
81	0x3c14757a	0.009061212
82	0x3c15511b	0.009113575
83	0xbc48c8d1	-0.01225491
84	0x3c8b8203	0.017029768
85	0xbcea4154	-0.028595604
86	0xbb91a322	-0.004444496
87	0xbc9702c8	-0.018433943
88	0x3ce96ab6	0.028493267
89	0xbb916070	-0.004436545
90	0xbcf6d798	-0.0301321
91	0x3b9e4eab	0.0048311553
92	0x3c122aa4	0.008921299
93	0xbccadce4	-0.024763532
94	0xbcbcc472	-0.023042891
95	0xbcaad01c	-0.020851187
96	0x3c3d9777	0.011571757
97	0xbc4fb36a	-0.012677053
98	0xbd2f192f	-0.042748626
99	0xbd369565	-0.044576067
100	0xbd6cff97	-0.057860937
101	0xbced88c2	-0.028995875
102	0xbc2f4de3	-0.010699722
103	0xbd6a602a	-0.057220615
104	0x3c91b532	0.017786596
105	0xbcd1b97a	-0.025601137
106	0xbd9455b5	-0.0724291
107	0xb9da009e	-0.0004158066
108	0x3d0d1f4a	0.034453668
109	0xbc4ccb56	-0.012499651
110	0xbd1587ea	-0.03650657
111	0x3cf66eea	0.030082185
112	0xbd1cb623	-0.038259637
113	0x3c84f183	0.016228443
114	0x3c93ce69	0.01804276
115	0x3cc3f56f	0.023920743
116	0x3d286313	0.04111011
117	0x3c9c16ad	0.019053781
118	0xbca721d2	-0.020401869
119	0x3d12b9cf	0.035821732
120	0x3c8bdf88	0.017074361
121	0x3ce4343c	0.027856939
122	0xbcdd9828	-0.027050093
123	0xbd27e9e0	-0.040994525
124	0xbbe54767	-0.006997037
125	0xbd1f5f7e	-0.038909428
126	0xbd71fb7d	-0.05907773
127	0xbc83d2dd	-0.016091758
128	0x3bf37d14	0.007430682
129	0x3b01737a	0.0019752667
130	0xbca16c9a	-0.019705106
131	0x3d0307ab	0.031989735
132	0xbd7f5bca	-0.062343396
133	0xbd1cbc02	-0.038265236
134	0x3d6f907b	0.058487397
135	0xbcb208ef	-0.021732775
136	0xbcbf43a1	-0.023347678
137	0x3c8aefb6	0.016960006
138	0xbd16931f	-0.0367614
139	0x3d4cda11	0.05001265
140	0xbb83284a	-0.0040026056
141	0x3cf55842	0.029949311
142	0xbbc85c04	-0.0061144847
143	0xbcba63cb	-0.022752663
144	0x3b9b14c3	0.0047326996
145	0xbd30c1f0	-0.043153703
146	0x3c4eb628	0.012616672
147	0xbc18f3e4	-0.009335492
148	0x3c8103a4	0.015748806
149	0x3ccf5841	0.025310637
150	0xbc79f087	-0.0152551
151	0x3d5e4cb0	0.054272354
152	0x3d020694	0.031744555
153	0x3c98ff89	0.018676536
154	0x3cb94c92	0.02261952
155	0xbc5eff1e	-0.013610629
156	0x3d6d5bed	0.057948995
157	0x3d7af8de	0.061272494
158	0xbc496e00	-0.012294292
159	0x3ca940af	0.020660726
160	0xbb97498e	-0.0046169227
161	0xbc5b7c29	-0.013396301
162	0xba9311cf	-0.0011220517
163	0x3c9a32fc	0.01882314
164	0x3d74da72	0.05977864
165	0x3cef1d20	0.029188693
166	0xbc8775b9	-0.016535627
167	0x3d1bb468	0.038013846
168	0x3d6f9f3c	0.058501467
169	0x3d8823a6	0.066474244
170	0xbcbf54e2	-0.023355905
171	0x3c9129cb	0.017720124
172	0xbcf52dc9	-0.029929059
173	0xbd039e91	-0.032133643
174	0x3d1b40b3	0.0379035
175	0x3b84941b	0.004045976
176	0xbd3df386	-0.04637482
177	0x3cadfca9	0.021238642
178	0xbd3eea91	-0.04661042
179	0x3cffb74d	0.031215334
180	0xbd418c65	-0.04725303
181	0xbd24400e	-0.04010015
182	0x3c402f61	0.011730046
183	0xbbd9f26c	-0.0066512134
184	0xbd22ecae	-0.039776497
185	0xbd45b2e6	-0.048266314
186	0xbc0cdcf8	-0.008597605
187	0xbd3939e8	-0.04522124
188	0x3a4ad9d7	0.0007738149
189	0xbafb3eef	-0.0019168536
190	0xbd035d64	-0.032071486
191	0xbc42c460	-0.01188764
192	0xbcf407c6	-0.029788863
193	0xbd35a81e	-0.044349782
194	0xbcb73d1d	-0.022368008
195	0x3ba24ec9	0.0049532396
196	0x3bbd51dc	0.0057775807
197	0xbd13b27f	-0.0360589
198	0xbd45cc71	-0.048290674
199	0x3a5c917e	0.0008414014
200	0xbbb1c781	-0.005425394
201	0xbcd57be2	-0.026060048
202	0x3c0c7444	0.008572642
203	0xbca14a72	-0.019688819
204	0x3c998cc4	0.01874388
205	0xbcde3143	-0.0271231
206	0x3ce3f728	0.027827814
207	0xbb718499	-0.0036852716
208	0x3cda776d	0.026668275
209	0x3c9060fe	0.017624374
210	0xbd75f547	-0.060048368
211	0x3b8d272c	0.004307648
212	0xbc9c79c5	-0.019101033
213	0x3cb55bf6	0.022138577
214	0x3c9562a2	0.018235508
215	0xbcd9fbbc	-0.026609294
216	0x3c2879f2	0.01028298
217	0xbc37d763	-0.011220786
218	0x3cb0b19c	0.021569066
219	0xbcf9149f	-0.03040534
220	0xbd64aa9b	-0.055826765
221	0xbcfa9473	-0.030588364
222	0x3d6447df	0.055732604
223	0xbd136ed3	-0.035994362
224	0xbd2059e9	-0.039148245
225	0xbd16cf90	-0.03681904
226	0xbcdb93ad	-0.026803816
227	0x3b889da8	0.0041691847
228	0x3d460ad3	0.048350167
229	0x3d20cee6	0.039259814
230	0xbd06be2e	-0.032896213
231	0x3afafe5d	0.0019149292
232	0x3cb9612e	0.022629347
233	0xbcd196f2	-0.025584672
234	0x3cdc84a5	0.026918719
235	0xbcdc3f00	-0.02688551
236	0xbd22e430	-0.039768398
237	0x3c9d7932	0.01922283
238	0xbc82f9d8	-0.015988275
239	0x3d3c9e80	0.046049595
240	0x3cefdbd4	0.029279627
241	0x3cbb5982	0.02286983
242	0x3baf7d57	0.005355518
243	0x3c65ccc8	0.014025874
244	0x3d1c94c5	0.038227815
245	0xbd65bb4e	-0.05608683
246	0xbbafb6b3	-0.0053623556
247	0x3ccbdbd6	0.0248851
248	0xbd2ed3f3	-0.0426826
249	0xbc0fce3c	-0.008777197
250	0x3d0f0e31	0.034925643
251	0xbc190fce	-0.009342147
252	0x3ce5455c	0.027987175
253	0xbb24b92d	-0.0025134787
254	0x3d1be9f0	0.038064897
255	0xbc88146b	-0.016611299

fc1.bias f4 [120]
0	0xbd1529a6	-0.036416672
1	0x3e1768b0	0.14786029
2	0xbce63e83	-0.02810598
3	0x3c8baca9	0.017050104
4	0xbbd6c0bc	-0.0065537374
5	0x3e03e0f8	0.12878788
6	0x3cddae20	0.027060568
7	0x3bc065a9	0.005871494
8	0xbdbf3d67	-0.093378834
9	0x3e4d7814	0.20065337
10	0x3c6bce00	0.014392376
11	0x3d3391ec	0.043840334
12	0x3d08b312	0.0333739
13	0x3c7f4b6b	0.015581946
14	0xbdb52a7e	-0.08845995
15	0x3cafd4bb	0.021463742
16	0x3daefb2c	0.08544001
17	0x3d0940c4	0.03350903
18	0x3a9afdcf	0.0011824908
19	0x3a28ba51	0.0006436455
20	0xbbfbe7e8	-0.0076875575
21	0x3e005f03	0.12536244
22	0x3bc6e170	0.0060693547
23	0xbd05b2e9	-0.032641325
24	0x3dd7b025	0.10531644
25	0xbb3896f7	-0.0028166154
26	0x3df9714d	0.121798135
27	0x3deefc4c	0.116692156
28	0xbc435beb	-0.01192377
29	0x3e17cdb9	0.1482457
30	0xbb478577	-0.0030444541
31	0x3dadc9c5	0.0848575
32	0x3d8e98a8	0.069627106
33	0xbda32a3b	-0.07967039
34	0x3b103816	0.0022006086
35	0x3dfe8b08	0.12428862
36	0x3dd15092	0.10220446
37	0x3e59a9c4	0.21256167
38	0x3d8b8353	0.068121575
39	0x3e1af9bf	0.15134333
40	0x3db0c5c4	0.08631471
41	0x3d090a51	0.033457104
42	0x3d11c5be	0.035588972
43	0xbd99945f	-0.07499003
44	0xbe2b3823	-0.16720633
45	0xbd5cdc1b	-0.053920846
46	0x3d9b7827	0.075912766
47	0x3b8ec4be	0.0043569496
48	0x3cd332a4	0.025780983
49	0x3d25f641	0.04051805
50	0x3da8fd25	0.082514085
51	0xbcfd0f57	-0.030891104
52	0xbd966547	-0.07343536
53	0x3d85bcaa	0.065301254
54	0x3cfb9758	0.030711815
55	0x3dca45ba	0.098765805
56	0x3c9f28f4	0.019428708
57	0x3d4fde6e	0.050749235
58	0xbdc6da14	-0.09709564
59	0xbda36b1b	-0.07979413
60	0xbc00fd1a	-0.007872844
61	0x3dcb47c9	0.09925801
62	0xbcc93a3d	-0.024563903
63	0xbdd3a34b	-0.1033388
64	0xbcca63e3	-0.024705833
65	0x3ca34a92	0.019933019
66	0x3c869cea	0.016432244
67	0x3c2dfda6	0.0106195565
68	0x3aed9328	0.0018125521
69	0x3d7d345f	0.061817523
70	0xbd8c120d	-0.068393804
71	0xbccba9dc	-0.024861269
72	0xbc8273c2	-0.015924338
73	0x3d1f1ac2	0.038843878
74	0xbcbd1891	-0.023083003
75	0xbda166b1	-0.07880915
76	0xbdad3973	-0.08458223
77	0xbd713355	-0.058886845
78	0xbc01600c	-0.0078964345
79	0xbbf8c71d	-0.0075920955
80	0x3daac994	0.08339229
81	0x3c120be1	0.008913965
82	0x3d65b6a2	0.056082375
83	0x3d86f2b5	0.065892614
84	0x3d8a8e9f	0.06765484
85	0x3da18979	0.07887549
86	0x3c061336	0.008183291
87	0x3daf5466	0.085610196
88	0x3e5d349d	0.21602102
89	0xbcca7b50	-0.024717003
90	0x3e035138	0.12823951
91	0xbc547c24	-0.012969051
92	0x3d7214d1	0.059101883
93	0x3e21cfe5	0.15801962
94	0xbd630cec	-0.055432245
95	0xbd14541f	-0.036213037
96	0xbc561dfd	-0.013068673
97	0x3d0ad0c5	0.033890504
98	0x3d1172e0	0.035509944
99	0x3c95a656	0.018267792
100	0xbcee015c	-0.029053383
101	0xbdd35829	-0.103195496
102	0x3cf99657	0.030467195
103	0xbcf7e6ca	-0.030261416
104	0x3a2435e8	0.0006264136
105	0x3e0ce27d	0.13758273
106	0xbbff8bd1	-0.00779865
107	0x3a69214c	0.0008893206
108	0xbcc1818f	-0.023621349
109	0xbcc74cc8	-0.024328604
110	0x3d1d4f72	0.038405843
111	0xbd458384	-0.048221126
112	0x3cdff8c1	0.027340295
113	0x3de19fcb	0.11016806
114	0xbdc1d1ac	-0.0946382
115	0xbc6594f5	-0.014012565
116	0x3bbcf199	0.0057661054
117	0x3d86b683	0.0657778
118	0xbd094f64	-0.03352298
119	0x3d85df4a	0.0653673

fc2.weight f4 [84, 120]
0	0x3db82e0b	0.08993157
1	0x3da355b9	0.07975335
2	0xbd26a0c2	-0.040680654
3	0x3d26e808	0.040748626
4	0xbb7a7af4	-0.0038220258
5	0x3d5a03b7	0.0532262
6	0x3d2e7606	0.042593025
7	0x3de037a1	0.1094811
8	0x3ccf42c9	0.0253004
9	0xbda0bb93	-0.07848277
10	0x3c9806bf	0.018557904
11	0xbd98c561	-0.07459522
12	0xbd8e1026	-0.06936674
13	0x3d21826b	0.039431017
14	0xbd8c34c9	-0.068460055
15	0xbc65dd9c	-0.014029887
16	0x3ce34ce9	0.027746635
17	0x3cfc0740	0.030765176
18	0xba25db4b	-0.00063269277
19	0xbd8605ab	-0.0654405
20	0x3d2e0927	0.042489197
21	0xbcfaff77	-0.030639393
22	0xbd215787	-0.039390113
23	0xb913cc0f	-0.0001409503
24	0x3c961c25	0.018323967
25	0xbda55fe3	-0.080749296
26	0x3d86951e	0.065714106
27	0xbc521896	-0.012823245
28	0xbd5aa915	-0.053383905
29	0x3d80641c	0.06269094
30	0xbdbdee8b	-0.09274014
31	0x3e085a83	0.13315777
32	0xbd39402c	-0.045227215
33	0x3a9ba22d	0.0011873894
34	0x3d122ed1	0.03568918
35	0xbd0871b7	-0.033311572
36	0x3d93301f	0.07186913
37	0x3d57a150	0.052644074
38	0x3c9af334	0.018914796
39	0x3d378453	0.04480393
40	0x3d64f857	0.055900898
41	0xbdc9c50c	-0.09852037
42	0xbd5efda7	-0.05444112
43	0xbd850943	-0.06495907
44	0xbc9598ff	-0.01826143
45	0x3d49bee1	0.049254302
46	0xbca95576	-0.020670634
47	0xbd8c2462	-0.06842877
48	0x3b85070b	0.0040596775
49	0xbc92930a	-0.01789238
50	0x3e15e93f	0.14639758
51	0xbdb0d1f0	-0.086337924
52	0x3c158f4b	0.009128402
53	0x3e17c815	0.14822419
54	0x3cdbf89c	0.026851945
55	0x3d93baf6	0.07213394
56	0xbb821fbb	-0.0039710677
57	0x3cbc375d	0.022975618
58	0x3d169a48	0.036768228
59	0xbdbcf461	-0.09226299
60	0x3dbcb5aa	0.09214337
61	0x3e091d7d	0.13390155
62	0xbd4df1e3	-0.05027951
63	0xbafdbe41	-0.0019359068
64	0xbd24714e	-0.04014712
65	0xbda0a083	-0.07843115
66	0xbd139438	-0.036030024
67	0xbd9f2c58	-0.0777213
68	0x3cea959f	0.028635798
69	0x3d2cc60e	0.042181067
70	0x3d434185	0.047669906
71	0x3d9cb8a9	0.07652409
72	0xbd969f43	-0.073545955
73	0x3ad2692a	0.001605307
74	0x3daad2ff	0.083410256
75	0xbe087348	-0.13325226
76	0xbe16bd32	-0.1472061
77	0xbd054229	-0.0325338
78	0x3d238370	0.03992027
79	0x3d2ebe78	0.042662114
80	0x3da3665f	0.0797851
81	0xbccabf27	-0.024749352
82	0xbd8f8e52	-0.07009567
83	0xbcd7dbc6	-0.026349913
84	0x3d1ebbcd	0.03875332
85	0x3d1434fc	0.036183342
86	0xbd85c352	-0.06531395
87	0x3d6b8ed0	0.057509243
88	0xbd7873db	-0.060657363
89	0x3ddecd88	0.10879046
90	0x3e0c3776	0.13693032
91	0xbdd05673	-0.10172739
92	0x3e1132f4	0.14179593
93	0xbe054f08	-0.1301843
94	0xbdb5c660	-0.08875728
95	0x3ce4fc09	0.027952211
96	0xbc6290a1	-0.0138284275
97	0x3e210f1f	0.15728424
98	0x3c056890	0.008142605
99	0xbdb767c4	-0.089553386
100	0x3d5911a1	0.052995328
101	0xbdaf899b	-0.08571168
102	0xbd4e3e98	-0.050352663
103	0xbd6ecf75	-0.058303315
104	0xbe066f3c	-0.1312837
105	0x3df4a8b8	0.11946243
106	0xbdb796f9	-0.089643426
107	0x3b936c94	0.0044990275
108	0xbc96c8d6	-0.018406313
109	0xbd6dba12	-0.05803878
110	0xbda84244	-0.08215764
111	0x3d6b0406	0.057376884
112	0x3c837e17	0.016051335
113	0xbd86889b	-0.06569024
114	0xbd906ff6	-0.07052605
115	0xbcc680c5	-0.024231324
116	0xbd92de11	-0.07171262
117	0x3ceefc8b	0.029173156
118	0x3d137da5	0.036008496
119	0xbcf9fa80	-0.030514956
120	0x3d02034d	0.03174143
121	0xbd0ec2f1	-0.03485388
122	0xbdab8682	-0.08375265
123	0xbb5d6cdd	-0.0033786811
124	0x3d31f620	0.043447614
125	0xbd0b19f3	-0.033960294
126	0x3e227112	0.15863445
127	0x3d17964c	0.03700857
128	0xbca25f31	-0.019820781
129	0xbce208e0	-0.027592123
130	0xbcd87b22	-0.026425902
131	0xbbad2cdf	-0.00528489
132	0x3c60bf07	0.0137174195
133	0xbd87412d	-0.06604228
134	0xbd957d34	-0.07299271
135	0x3d03238d	0.032016326
136	0xbd0058cd	-0.031334687
137	0x3d8b3b4c	0.06798419
138	0xbd3d7bde	-0.046260707
139	0x3976d1c6	0.00023538535
140	0x3bdd8fd2	0.0067615295
141	0x3e1195cf	0.14217304
142	0x3d9b2b1c	0.07576582
143	0x3d972790	0.07380593
144	0x3d7a163b	0.061056357
145	0xbd98a0ea	-0.07452567
146	0xbdd305c5	-0.10303835
147	0x3d767d4f	0.060178097
148	0xbd8a6c84	-0.06758979
149	0xbd7f410d	-0.062317897
150	0xbdd6fd67	-0.104975514
151	0x3c00faac	0.007872265
152	0x3cbd80d5	0.023132721
153	0xbb0e4ab0	-0.0021711998
154	0xbdbb2794	-0.09138408
155	0xbe04ae33	-0.12957077
156	0xbd88182f	-0.06645238
157	0x3d4f7f32	0.050658412
158	0xbde3ad85	-0.111170806
159	0xbdc4f346	-0.09616713
160	0x3da80add	0.08205197
161	0x3bd1acdf	0.0063987817
162	0xbd2928c2	-0.041298635
163	0x3e1f15d4	0.1553567
164	0x3dc0b9ba	0.094104245
165	0x3d87210a	0.065980986
166	0x3d6ab89b	0.05730496
167	0xbb568163	-0.003273093
168	0xbd8eecea	-0.069787815
169	0x3a2d7f2d	0.0006618377
170	0xbe026938	-0.1273545
171	0x3d82775d	0.06370423
172	0xbcad194c	-0.021130227
173	0xbdc9a8a7	-0.09846621
174	0x3d3ff5f9	0.046865437
175	0x3d4a34dc	0.049366817
176	0xbd8d6e08	-0.069057524
177	0xbcee0245	-0.029053817
178	0xbda56ecd	-0.08077774
179	0xbde225be	-0.11042355
180	0x3da2fa56	0.07957904
181	0xbd0017a3	-0.03127254
182	0x3da93d95	0.08263699
183	0xbc47756f	-0.012173994
184	0xbd7bc26b	-0.06146471
185	0x3d5ce292	0.05392701
186	0x3d88fba0	0.06688619
187	0xbdaa7649	-0.08323342
188	0xbda22857	-0.079178505
189	0x3c10553e	0.008809386
190	0x3db8e760	0.09028506
191	0xbdb671cf	-0.08908426
192	0xbd4bdafc	-0.049769387
193	0x3dab324e	0.08359204
194	0xbd41e2d5	-0.047335465
195	0x3d54517c	0.051835522
196	0x3cf43b21	0.029813351
197	0x3d65cdae	0.056104355
198	0x3de917ff	0.1138153
199	0x3ba84ddc	0.0051362347
200	0x3de519b3	0.11186542
201	0xbc5059a4	-0.0127166845
202	0x3dc2638f	0.094916455
203	0x3d91300a	0.07089241
204	0xbd42f015	-0.04759224
205	0xbd8af483	-0.06784918
206	0xbde93e0d	-0.11388788
207	0x3dd32e56	0.10311572
208	0x3dde9a5d	0.10869286
209	0xbca504cb	-0.020143887
210	0x3d4907f9	0.04907987
211	0xbbbf238f	-0.0058330963
212	0x3d8ec8e2	0.06971909
213	0x3d83e957	0.064409904
214	0x3d0b134d	0.033953954
215	0x3cbec7a3	0.023288554
216	0x3d02a312	0.031893797
217	0x3caf2cb9	0.02138363
218	0xbd158431	-0.03650302
219	0x3debad47	0.115076594
220	0x3d00b3cf	0.03142148
221	0x3d27a3af	0.040927585
222	0xbdcbbf47	-0.09948593
223	0xbdbd5c5a	-0.0924613
224	0x3da67dc8	0.081294596
225	0x3dcd55bb	0.100261174
226	0xbdeeab5b	-0.11653777
227	0x3d57bb47	0.052668836
228	0x3db9c784	0.09071258
229	0xbd716f4a	-0.058944024
230	0x3e1b079f	0.15139626
231	0x3c19c7a6	0.009385979
232	0xbd8f8360	-0.0700748
233	0xbd0ef7a7	-0.03490415
234	0xbdd9ff0c	-0.106443495
235	0xbcd827b0	-0.026386112
236	0xbcc87522	-0.024469916
237	0x3d0703b0	0.0329625
238	0x3d3106f5	0.043219525
239	0x3d618170	0.05505508
240	0x3d42363a	0.047414996
241	0xbdc797de	-0.09745763
242	0xbcda25c0	-0.026629329
243	0xbdb2317e	-0.08700846
244	0xbd43b449	-0.047779355
245	0x3d13bd28	0.036069065
246	0xbcd2313c	-0.025658242
247	0xbd5cecca	-0.053936757
248	0xbd8651b3	-0.06558552
249	0x3c675668	0.014119722
250	0x3e024721	0.12722446
251	0xbcc4a14d	-0.024002695
252	0xbd52a4ca	-0.051426686
253	0x3da21f93	0.079161786
254	0xbc5f29bc	-0.01362079
255	0xbd9945c4	-0.0748401

fc2.bias f4 [84]
0	0x3e36296a	0.17789236
1	0xbd9e5ec5	-0.077329196
2	0x3d5d2c23	0.05399717
3	0xbc08241e	-0.008309392
4	0x3e411102	0.18854144
5	0xbd73f6f0	-0.05956167
6	0xbd84f608	-0.06492239
7	0xbbbc33aa	-0.0057434635
8	0xbca0dcc9	-0.019636529
9	0x3ced2b3d	0.028951282
10	0x3e48de3f	0.1961603
11	0x3b9f061d	0.0048530237
12	0xbd8fbd70	-0.07018554
13	0x3d91f79f	0.07127308
14	0xbc08fde3	-0.008361313
15	0x3e2b6d7b	0.16740982
16	0x3d0f29a8	0.034951836
17	0x3e9257e0	0.28582668
18	0x3d90e73c	0.070753545
19	0xbe1c6efa	-0.15276709
20	0x3de984b4	0.11402264
21	0x3ced1505	0.028940687
22	0xbd7cd65d	-0.06172787
23	0x3cdd53a2	0.027017418
24	0x3db6a41d	0.08918021
25	0x3db9016a	0.09033473
26	0x3df597cd	0.11991844
27	0x3e85f206	0.26161212
28	0x3cedfbd9	0.029050754
29	0x3dde5b85	0.108573
30	0xbd9ab281	-0.07553578
31	0x3dc6fa75	0.0971574
32	0xbc8d470e	-0.017245796
33	0x3d9c2e4e	0.076260194
34	0x3e62fac9	0.2216598
35	0x3cc332f3	0.023828005
36	0xbde7461f	-0.112926714
37	0x3e2bd0c4	0.16778857
38	0xbd037862	-0.032097228
39	0x3eb6759d	0.35636607
40	0x3d1eba82	0.038752086
41	0xbcb1773e	-0.021663304
42	0xbc389b51	-0.011267499
43	0x3e2f13c6	0.17097387
44	0x3ca230ad	0.019798601
45	0xbd272cf4	-0.040814355
46	0xbda528ad	-0.08064399
47	0x3d1c0c71	0.038097803
48	0x3c6ee700	0.014581442
49	0x3ca6fe58	0.020384952
50	0x3e008753	0.12551622
51	0x3e21d9f4	0.15805799
52	0x3d1e132f	0.038592514
53	0xbdbcdf26	-0.0922225
54	0xbdc3af00	-0.09554863
55	0x3e9679c3	0.29389772
56	0x3d448a16	0.04798325
57	0xbd87d3ec	-0.06632218
58	0x3b8b845c	0.004257722
59	0x3e00e865	0.12588651
60	0xbd44f89a	-0.048088647
61	0x3e06b0f3	0.13153438
62	0x3e0ba351	0.13636519
63	0xbdbeb843	-0.09312489
64	0xbcfdd4f2	-0.03098533
65	0x3e6faad2	0.23405007
66	0x3b537d7f	0.0032270846
67	0x3d957995	0.072985806
68	0x3db75658	0.08952016
69	0x3c849dcd	0.016188527
70	0x3e35c3fe	0.17750546
71	0xbd38d34e	-0.04512339
72	0xbd6d5ee6	-0.05795183
73	0x3da5e116	0.08099572
74	0xb7f10f86	-2.8736667e-05
75	0x3e71ba11	0.23606135
76	0xbdd981f3	-0.10620489
77	0x3e3585cc	0.1772682
78	0x3d44bdf4	0.048032716
79	0xbe03819e	-0.12842414
80	0x3daae449	0.08344323
81	0x3e066e9a	0.13128129
82	0xbc3aec41	-0.011408866
83	0x3d7283ea	0.059207834

fc3.weight f4 [10, 84]
0	0x3e7cd49e	0.24690482
1	0xbc971947	-0.01844467
2	0xbcd80184	-0.02636791
3	0x3e2e3109	0.17010893
4	0xbcbe1065	-0.023201177
5	0x3e04afe5	0.12957723
6	0xbc2d00f4	-0.010559309
7	0xbe205060	-0.1565566
8	0xbda8fddf	-0.08251547
9	0x3e28c7a1	0.16482402
10	0xbdb17eb9	-0.086667486
11	0x3d820aca	0.06349714
12	0x3db0e959	0.086382575
13	0x3d3021c0	0.043000937
14	0xbda228a5	-0.079179086
15	0x3daaee12	0.083461896
16	0x3d5044ca	0.050846852
17	0xbea85441	-0.3287678
18	0x3df81a51	0.121143945
19	0x3db4db7d	0.088309266
20	0xbe7d6f1b	-0.24749415
21	0xbe19be32	-0.1501396
22	0x3dbb16c3	0.09135201
23	0xbe0ba09a	-0.13635483
24	0xbc116772	-0.008874761
25	0xbcd97bb3	-0.026548242
26	0x3e1060fa	0.14099494
27	0xbe70305f	-0.23455952
28	0xbda18cd4	-0.07888189
29	0xbd0463dd	-0.0323218
30	0x3cb1d4cb	0.021707913
31	0x3d119c9d	0.03554975
32	0x3ddbf217	0.10739534
33	0x3e9c4b33	0.30526122
34	0x3c8aeadf	0.016957698
35	0xbd0897a1	-0.03334773
36	0x3d9a4450	0.07532561
37	0xbd66bd70	-0.056333005
38	0xbc878c41	-0.01654637
39	0xbe91d87c	-0.28485477
40	0x3e0cfef0	0.13769126
41	0xbba90dee	-0.0051591313
42	0xbdc4ca55	-0.09608904
43	0xbe0aa267	-0.13538514
44	0xbd7528b3	-0.059853267
45	0x3dc2ba59	0.09508199
46	0x3d8a5a54	0.0675551
47	0xbe34e92b	-0.17667072
48	0xbcac173e	-0.021007176
49	0xbcbd15fe	-0.023081776
50	0x3c968c24	0.018377371
51	0x3ec16839	0.37774828
52	0x3e645bbf	0.22300623
53	0x3c9e2136	0.019302946
54	0xbd05be77	-0.032652345
55	0x3e531c7a	0.20616332
56	0xbd52175b	-0.051291805
57	0x3d98bed8	0.074582756
58	0x3d0ba214	0.034090117
59	0x3d30ab78	0.043132275
60	0x3e571bff	0.21006773
61	0x3e132822	0.14370778
62	0x3dba4ba1	0.09096456
63	0xbc7211d0	-0.014774755
64	0x3e46edd8	0.19426668
65	0x3a58200d	0.0008244522
66	0xbce04bf8	-0.027379975
67	0xbda34573	-0.07972231
68	0x3e20d39e	0.15705726
69	0xbdf608fd	-0.12013433
70	0xbda7c58f	-0.08191978
71	0xbdc0b21a	-0.0940897
72	0xbcfcf13b	-0.030876746
73	0x3d6a4a56	0.0571998
74	0x3bd3a791	0.0064591845
75	0xbdfa4d61	-0.1222179
76	0x3d13b5ad	0.03606193
77	0xbd3f3c7a	-0.046688534
78	0xbde38908	-0.11110121
79	0xbd6ff101	-0.05857945
80	0xbe23c84a	-0.15994373
81	0x3d67b77c	0.05657147
82	0x3b14db60	0.0022713766
83	0x3da1d668	0.07902223
84	0xbe697f2d	-0.2280242
85	0x3c85f658	0.016352817
86	0xbe309710	-0.17245126
87	0x3ec37ff8	0.3818357
88	0xbe0f6e5b	-0.14006941
89	0x3e1032c7	0.1408187
90	0x3e775d37	0.24156652
91	0x3ca757d6	0.020427626
92	0x3e11d7c3	0.14242463
93	0x3e0f3b74	0.13987523
94	0xbe37e8b1	-0.17959858
95	0x3dd20d92	0.102564946
96	0xbd12e978	-0.035867184
97	0x3cf28e92	0.029608998
98	0x3d207278	0.039171666
99	0xbd5ef0d9	-0.05442891
100	0x3ccd0a5a	0.02502935
101	0xbe953106	-0.29138964
102	0x3e324701	0.17409898
103	0x3e371377	0.17878519
104	0xbbe76481	-0.0070615415
105	0x3e7d617b	0.24744217
106	0x3e5a9df4	0.21349317
107	0xbd773ea6	-0.06036248
108	0x3c9a97d2	0.018871222
109	0xbc03749f	-0.00802341
110	0xbe31bfe7	-0.17358361
111	0xbdd0d534	-0.10196915
112	0xbd038640	-0.032110453
113	0xbc99a111	-0.01875356
114	0xbda8b365	-0.08237342
115	0xbe7d1d98	-0.2471832
116	0xbd33f836	-0.043937884
117	0xbe4ed70a	-0.20199218
118	0xbd7ab2f5	-0.061205823
119	0xbdc5b455	-0.09653536
120	0x3d198abb	0.03748582
121	0x3de31961	0.11088825
122	0xbd80ccf7	-0.06289094
123	0xbea85025	-0.32873645
124	0xbdd30e9d	-0.10305522
125	0xbd8f556b	-0.06998714
126	0x3c87f3cc	0.016595744
127	0xbd5a5715	-0.053305704
128	0x3e311e25	0.17296655
129	0xbc606aa2	-0.013697298
130	0xb943017e	-0.00018597205
131	0xbe46d072	-0.19415453
132	0xbe5a1c97	-0.21299969
133	0x3e4beaac	0.19913739
134	0x3d07008a	0.0329595
135	0x3e3b75a4	0.18306595
136	0x3e6beebb	0.23040287
137	0x3d55f085	0.05223133
138	0xbcb4fb5e	-0.022092517
139	0xbdfd1c72	-0.12358941
140	0x3bf14179	0.0073625413
141	0x3d9a58fa	0.07536502
142	0x3e2ebe88	0.1706487
143	0xbe165c65	-0.14683683
144	0xbdc71c5d	-0.09722207
145	0xbe6a6a47	-0.22892104
146	0xbe161c3d	-0.1465921
147	0xbcca74d0	-0.024713904
148	0xbdfaa91f	-0.122392885
149	0xbe4e478e	-0.20144483
150	0x3a50a499	0.0007959097
151	0x3d909ea9	0.07061512
152	0x3e4f7231	0.20258404
153	0x3e346886	0.17617998
154	0x3d3e442a	0.046451725
155	0x3e224bd7	0.15849243
156	0xbdca1d67	-0.09868889
157	0x3e0e075b	0.13869993
158	0x3d57f008	0.052719146
159	0xbe8d1800	-0.27557373
160	0x3de4db32	0.11174621
161	0x3e2a3ede	0.16625544
162	0xbd5bcdb1	-0.05366296
163	0x3dd49c4b	0.10381373
164	0xbe1b2935	-0.15152438
165	0xbda18ef0	-0.07888591
166	0xbe0ee6dc	-0.13955253
167	0x3e77529d	0.24152608
168	0x3dae0cef	0.08498561
169	0xbd8b02aa	-0.067876175
170	0xbda19994	-0.07890621
171	0xbbf602c5	-0.0075076544
172	0x3d64755c	0.055775985
173	0xbdd0db21	-0.101980455
174	0xbdd310c7	-0.103059344
175	0xbcf4398c	-0.029812597
176	0xbc0b2238	-0.008492045
177	0xbd9f1006	-0.07766728
178	0x3d536447	0.051609304
179	0x3c2809f2	0.010256277
180	0xbccd9128	-0.02509363
181	0x3e0de1a0	0.138556
182	0xbe8587b0	-0.26080084
183	0x3c4e2085	0.012580995
184	0x3cbb5cf8	0.02287148
185	0x3d4e7414	0.05040367
186	0x3deafd0f	0.11474048
187	0xbe46aab5	-0.19401057
188	0x3e372b9b	0.17887728
189	0x3d2af36b	0.041736048
190	0xbdeaf71e	-0.11472915
191	0xbd10cc90	-0.035351336
192	0xbca3e6c1	-0.020007493
193	0x3e851b10	0.2599721
194	0xbd800988	-0.06251818
195	0x3daa14bd	0.08304737
196	0x3d8fed1d	0.07027648
197	0xbd6c9741	-0.057761434
198	0x3d0a2aa0	0.033732057
199	0xbc802a31	-0.015645118
200	0x3e0504bf	0.12990092
201	0x3e0cb05a	0.13739148
202	0xbe3fd5bd	-0.18733878
203	0x3dae5e4d	0.0851408
204	0x3c4a903d	0.012363491
205	0x3daa3bcc	0.083121866
206	0x3d6e0c8a	0.058117427
207	0x3d465c43	0.04842783
208	0x3e528249	0.20557512
209	0x3c6e09b2	0.014528679
210	0x3d761ebe	0.06008791
211	0xbda7aefa	-0.08187671
212	0x3e23a045	0.15979107
213	0x3e1f5935	0.15561374
214	0xb9a5d2fe	-0.00031628454
215	0x3e13e94a	0.14444461
216	0x3ca0f8a4	0.019649811
217	0x3c3848fa	0.011247868
218	0xbe4682f9	-0.193859
219	0x3ded3983	0.11583235
220	0xbaf473d0	-0.0018650237
221	0x3cd891da	0.026436735
222	0x3e45b6ba	0.19307986
223	0x3d8312da	0.0640008
224	0xbd78a3f4	-0.060703233
225	0xbcbe0013	-0.023193395
226	0xbe1a4d11	-0.15068461
227	0x3cce781a	0.025203753
228	0x3df92bea	0.12166579
229	0x3e5e4f1b	0.21709864
230	0x3db5c364	0.088751584
231	0x3dcc4671	0.09974373
232	0xbc18d2a4	-0.009327564
233	0x3e96c56b	0.29447493
234	0x3d7b31e9	0.061326895
235	0x3dd2b2f6	0.1028804
236	0x3d2f232d	0.042758156
237	0xbdc21145	-0.0947595
238	0xbddb617b	-0.10711952
239	0x3e45abd0	0.19303823
240	0xbd96ee8f	-0.0736972
241	0xbdc4d9fd	-0.096118905
242	0x3ca0cdd4	0.019629396
243	0x3e050bcb	0.1299278
244	0xbe4b28f0	-0.19839835
245	0xbe31a286	-0.17347154
246	0xbd65d27f	-0.056108948
247	0xbc7c0c55	-0.0153838
248	0x3dd7ffca	0.10546835
249	0x3df0871c	0.1174452
250	0xbdaf4deb	-0.085597835
251	0xbd53fe95	-0.05175646
252	0xbddcf064	-0.107880384
253	0xbe325905	-0.17416771
254	0xbc75c86b	-0.015001397
255	0xbe5a3952	-0.21310928

fc3.bias f4 [10]
0	0xbe25134f	-0.16120647
1	0xbea0b1df	-0.31385705
2	0x3e8b4abb	0.27205452
3	0x3ecee0d2	0.404059
4	0x3eb880f2	0.36035877
5	0xbd7b6886	-0.06137898
6	0x3e0989f8	0.13431537
7	0xbedd5241	-0.43226817
8	0x3e772f37	0.24139105
9	0xbe78cee8	-0.24297678
